…
:{"background_save":true},"executionInfo":{"elapsed":32187,"status":"aborted","timestamp":1710432781941,"user":{"displayName":"Akib Khan","userId":"06624025184583002856"},"user_tz":-360},"id":"iB7g-hz1gnmO","outputId":"4078c441-f3d9-4e4b-b3a2-4a9305c697fe","collapsed":true},"outputs":[{"name":"stdout","output_type":"stream","text":["Model: \"sequential\"\n","_________________________________________________________________\n"," Layer (type)                Output Shape              Param #   \n","=================================================================\n"," conv2d (Conv2D)             (None, 240, 200, 10)      760       \n","                                                                 \n"," conv2d_1 (Conv2D)           (None, 240, 200, 24)      6024      \n","                                                                 \n"," max_pooling2d (MaxPooling2  (None, 120, 100, 24)      0         \n"," D)                                                              \n","                                                                 \n"," conv2d_2 (Conv2D)           (None, 120, 100, 36)      21636     \n","                                                                 \n"," max_pooling2d_1 (MaxPoolin  (None, 60, 50, 36)        0         \n"," g2D)                                                            \n","                                                                 \n"," conv2d_3 (Conv2D)           (None, 56, 46, 64)        57664     \n","                                                                 \n"," max_pooling2d_2 (MaxPoolin  (None, 28, 23, 64)        0         \n"," g2D)                                                            \n","                                                                 \n"," conv2d_4 (Conv2D)           (None, 26, 21, 72)        41544     \n","                                                                 \n"," flatten (Flatten)           (None, 39312)             0         \n","                                                                 \n"," dense (Dense)               (None, 300)               11793900  \n","                                                                 \n"," dense_1 (Dense)             (None, 150)               45150     \n","                                                                 \n"," dense_2 (Dense)             (None, 64)                9664      \n","                                                                 \n"," dense_3 (Dense)             (None, 2)                 130       \n","                                                                 \n","=================================================================\n","Total params: 11976472 (45.69 MB)\n","Trainable params: 11976472 (45.69 MB)\n","Non-trainable params: 0 (0.00 Byte)\n","_________________________________________________________________\n"]}],"source":["model.compile(optimizer = 'adam', loss = 'cat
…
